app/src/main/ml/cvdPrediction.tflite (tflite, 22288 bytes, 5 tensors)

dense_6/bias f4 [64]
0	0xb693f487	-4.409408e-06
1	0xbc171f62	-0.009223791
2	0xbb98472e	-0.004647157
3	0xbbf72721	-0.0075425063
4	0xbb061640	-0.002046004
5	0xb910eb94	-0.0001382067
6	0xbb0ebcd0	-0.0021780021
7	0xbc301db6	-0.010749271
8	0x00000000	0.0
9	0xbc35d6ba	-0.011098558
10	0x00000000	0.0
11	0xbbb32ce7	-0.0054679993
12	0x00000000	0.0
13	0xba54dcf3	-0.0008120082
14	0xbb063655	-0.0020479162
15	0x00000000	0.0
16	0x00000000	0.0
17	0xb9ddcc84	-0.0004230478
18	0xbdaacdca	-0.083400324
19	0x00000000	0.0
20	0xbb035862	-0.0020041694
21	0x00000000	0.0
22	0x00000000	0.0
23	0x00000000	0.0
24	0xbb38142b	-0.0028088193
25	0xba27cd00	-0.0006401092
26	0x00000000	0.0
27	0xb938c97e	-0.00017622669
28	0x00000000	0.0
29	0x00000000	0.0
30	0xb9a08d61	-0.00030622914
31	0xba197ebb	-0.0005855371
32	0x00000000	0.0
33	0xbb656237	-0.0035001168
34	0xbd022034	-0.031768993
35	0xbb67659b	-0.0035308364
36	0xbc1e1ded	-0.00965069
37	0xbaf733e8	-0.0018860074
38	0xbb62500a	-0.003453257
39	0x00000000	0.0
40	0xbb76d837	-0.0037665495
41	0xba9623c3	-0.001145475
42	0xbbc6a582	-0.0060622105
43	0xb9a1a918	-0.00030834298
44	0xba4f8659	-0.00079164427
45	0xb9933e38	-0.00028084381
46	0xba1afad4	-0.000591201
47	0xba16a06e	-0.0005745952
48	0x00000000	0.0
49	0x00000000	0.0
50	0xb97b8bd4	-0.00023989315
51	0x00000000	0.0
52	0xb91e8077	-0.00015115911
53	0xbaf8ca46	-0.0018981181
54	0xb9ddb399	-0.00042286215
55	0xbaf7e8ae	-0.0018913948
56	0x00000000	0.0
57	0xbaad575b	-0.0013224886
58	0xb95c8812	-0.00021031525
59	0xbb8bdf71	-0.0042685797
60	0xb88582a3	-6.366267e-05
61	0xbb34a4cd	-0.002756405
62	0xbb1697ab	-0.0022978585
63	0x00000000	0.0

sequential_2/dense_6/MatMul f4 [64, 13]
0	0x3e0b5506	0.13606653
1	0x3be0d2c0	0.006861061
2	0x3e6c7282	0.23090556
3	0xbe8efaa1	-0.2792559
4	0x3c9b7624	0.018977232
5	0xbe355cc0	-0.17711163
6	0xbd48093b	-0.048836928
7	0x3d88562d	0.06657062
8	0xbd87907e	-0.066193566
9	0x3e0e0ba9	0.13871635
10	0x3d1e8749	0.038703237
11	0x3e2ab7ec	0.16671723
12	0xbce5e0ab	-0.028061232
13	0xbf327549	-0.6971021
14	0xbe9264c2	-0.28592497
15	0xbdc7efe7	-0.097625546
16	0xbf84cd68	-1.0375185
17	0xc0039c06	-2.056398
18	0x3d833189	0.064059325
19	0xbe7d8ced	-0.2476079
20	0xbfad2dab	-1.3529562
21	0xbcd5e23b	-0.026108852
22	0xbc80cb3c	-0.01572191
23	0x3e6a2676	0.22866234
24	0x3e88f4ec	0.2674936
25	0x3d94e2fb	0.072698556
26	0xbd9a5137	-0.07535022
27	0xbe42254e	-0.18959543
28	0xbe0ae44e	-0.13563654
29	0xbecb94b6	-0.39761895
30	0xbf79305a	-0.97339404
31	0x3e58da56	0.21177039
32	0xbe374dfe	-0.17900845
33	0xbf5db00f	-0.8659677
34	0xbe53f648	-0.20699418
35	0x3e348442	0.17628577
36	0xbc5a620e	-0.013329042
37	0xbda9df65	-0.08294562
38	0x3de75a17	0.1129648
39	0xbeea4ecd	-0.45763245
40	0x3db3c185	0.08777145
41	0x3cb7c451	0.022432478
42	0xbf9b5aef	-1.2137126
43	0xbfd25b6e	-1.6434152
44	0x3d862ed0	0.065518975
45	0x3e5a9acc	0.21348113
46	0xbf5117fc	-0.8167722
47	0xbe6e958d	-0.23299237
48	0xbe84ec8f	-0.2596173
49	0x3cebf4ca	0.028803248
50	0x3e8612ae	0.26186126
51	0xbe2e8e98	-0.17046583
52	0x3ce165b7	0.027514322
53	0x3e716050	0.23571897
54	0xbe370e0c	-0.17876452
55	0xbd65902a	-0.05604569
56	0xbee318cc	-0.44354856
57	0xbe6e6c32	-0.2328346
58	0xbe05e3f1	-0.13075234
59	0xbe78d36b	-0.242994
60	0x3e611081	0.21978952
61	0x3e191a84	0.14951521
62	0xbe707fed	-0.234863
63	0xbb5aa539	-0.003336264
64	0xbe248d85	-0.1606961
65	0xbe74d199	-0.2390808
66	0xbe6d9722	-0.23202184
67	0x3d30e638	0.043188304
68	0xbdea26ae	-0.11433159
69	0xbdae36ea	-0.08506568
70	0xbe00bc2b	-0.1257178
71	0xbe8ebecc	-0.2787994
72	0x3e0b46b1	0.13601185
73	0xbd38bbf4	-0.04510112
74	0x3e703922	0.23459294
75	0xbe89451b	-0.26810536
76	0xbdf8c378	-0.12146658
77	0xbd1dbd6e	-0.038510732
78	0x3e23ed57	0.16008507
79	0xbe2e28c0	-0.17007732
80	0xbe02211a	-0.1270794
81	0xbd9ac5fa	-0.07557292
82	0xbf030b3b	-0.5118901
83	0xbdbf532b	-0.09342035
84	0xbc896c01	-0.016775133
85	0xbef21b45	-0.4728643
86	0xbe4608eb	-0.1933934
87	0x3e18e730	0.14931941
88	0x3cf5add2	0.02999011
89	0xbc680200	-0.014160633
90	0x3e29b99c	0.1657471
91	0xbeb1024e	-0.3457207
92	0x3e6e9dc1	0.23302366
93	0xbdad4fa3	-0.08462455
94	0xbf9dc7c6	-1.2326591
95	0xc01c71f0	-2.4444542
96	0xbd225bbc	-0.039638266
97	0x3d32ecf2	0.043683
98	0xbfc2f7fb	-1.5231928
99	0xbe26659d	-0.162497
100	0x3d80d3cd	0.06290398
101	0x3df77f84	0.120848686
102	0xbe3c861a	-0.1841053
103	0x3cd147c6	0.02554692
104	0xbe230e20	-0.15923357
105	0x3ddaee94	0.106900364
106	0x3db68484	0.08911994
107	0x3bd424c0	0.0064741075
108	0xbe72e5a2	-0.2372041
109	0xbdaa5524	-0.083170205
110	0x3e53a4d8	0.20668352
111	0x3ddea428	0.10871154
112	0x3cbe80f0	0.023254842
113	0xbc6bf1c0	-0.014400899
114	0x3de283b0	0.11060274
115	0x3e85f78b	0.26165423
116	0x3e7d411e	0.24731871
117	0xbeafca41	-0.34333995
118	0x3e3dd25d	0.18537278
119	0xbe765f98	-0.24059904
120	0xbfb00c14	-1.3753686
121	0xc02b5b44	-2.6774454
122	0x3d849dca	0.064754084
123	0x3e30b9d0	0.17258382
124	0xbfae921e	-1.3638341
125	0xbe50f363	-0.20405345
126	0xbe013aaa	-0.12620035
127	0x3e61accd	0.22038575
128	0xbb329584	-0.0027249763
129	0x3d0f327b	0.03496025
130	0xbe4e7ffe	-0.20166013
131	0x3e429f82	0.1900616
132	0xbd6bf7ac	-0.057609245
133	0x3dcdf8d4	0.10057226
134	0xbd928d7a	-0.07155891
135	0x3db46178	0.08807653
136	0x3d789298	0.060686678
137	0xbdd7777e	-0.10520838
138	0x3e36028c	0.17774409
139	0x3e25b186	0.16181001
140	0xbe02da14	-0.12778503
141	0xbd86972e	-0.06571804
142	0xbe0379d6	-0.12839445
143	0xbec63bcf	-0.38717505
144	0x3e41cd29	0.18925919
145	0xbe56eec8	-0.20989525
146	0xbf4db271	-0.80350405
147	0xbf92811c	-1.1445651
148	0xbd767479	-0.06016967
149	0x3e3e7511	0.18599345
150	0xbf22ec7f	-0.63642114
151	0x3d378f85	0.044814605
152	0xbd1559c5	-0.036462564
153	0xbe6f9065	-0.23394926
154	0x3e0ed8db	0.13949911
155	0xbe2eccba	-0.17070284
156	0x3bb05fc0	0.005382508
157	0x3e843d45	0.25827995
158	0x3d398a98	0.04529819
159	0xbc2c7740	-0.010526478
160	0xbd67a1dc	-0.056550846
161	0x3e1a9416	0.15095553
162	0xbe69975b	-0.22811644
163	0xbe39fc66	-0.18162689
164	0xbcc47360	-0.023980796
165	0x3e783bea	0.24241605
166	0xbe219b90	-0.15781999
167	0xbe8a8f4b	-0.2706245
168	0x3dc39898	0.09550589
169	0xbd09bf48	-0.033629686
170	0xbe7d01b8	-0.24707687
171	0x3e5ccdd4	0.21562892
172	0x3e125d4e	0.14293405
173	0xbe67830f	-0.22608589
174	0x3e4c55e5	0.19954641
175	0xbe848e31	-0.25889733
176	0xbe5ca1dd	-0.21546121
177	0x3e8c532b	0.27407202
178	0x3e212e13	0.15740232
179	0xbe3c101d	-0.18365522
180	0x3e6a6c17	0.22892796
181	0xbe495c48	-0.19664109
182	0xbec5e173	-0.38648567
183	0xbdf3c02b	-0.119018875
184	0x3e37d5f9	0.17952718
185	0xbe8b5e51	-0.27220395
186	0xbeac6efa	-0.33678418
187	0x3e57e2da	0.21082631
188	0xbe15b5a2	-0.14620069
189	0xbea6006b	-0.32422194
190	0xbdcf5487	-0.10123544
191	0x3e3c7d28	0.18407118
192	0x3e341103	0.17584614
193	0xbe639e37	-0.22228323
194	0xbe613926	-0.21994457
195	0xbe367c14	-0.1782077
196	0xbd56a660	-0.05240476
197	0xbe443499	-0.1916069
198	0xbe48187c	-0.1954059
199	0xbde07d1a	-0.10961361
200	0x3dfd23ec	0.12360367
201	0x3e1c82a6	0.15284213
202	0x3d72bb20	0.059260488
203	0xbe862f4b	-0.26207957
204	0x3aa39d00	0.0012482703
205	0x3e6efaca	0.23337856
206	0xbd00a6e4	-0.03140916
207	0x3e8db2db	0.27675518
208	0x3e169662	0.14705804
209	0xbe2efdc2	-0.17088988
210	0x3e68d206	0.22736368
211	0xbe374976	-0.17899117
212	0xbd917c30	-0.07103765
213	0xbc9c31c0	-0.019066691
214	0x3ca30290	0.019898683
215	0xbe46d4d0	-0.19417119
216	0x3d5715c0	0.052510977
217	0xbe77711c	-0.24164242
218	0x3e3a80ac	0.18213147
219	0xbe041f87	-0.12902652
220	0xbdfeea7a	-0.124470666
221	0xbd698c29	-0.057018433
222	0xbe446c8f	-0.19182037
223	0x3e137b8e	0.14402601
224	0xbe388d11	-0.18022563
225	0x3c00249b	0.007821227
226	0xbe145ceb	-0.1448857
227	0x3e26fe02	0.16307834
228	0xbdf9d015	-0.121978916
229	0xbccdd149	-0.025124209
230	0xbe01d461	-0.12678672
231	0xbdbd4d5b	-0.0924327
232	0xbe09ec91	-0.13469149
233	0xbe8c9cb5	-0.27463308
234	0xc08ab3db	-4.334455
235	0xbe960708	-0.2930224
236	0xbe723126	-0.23651561
237	0xc13277b1	-11.154222
238	0xc19c0642	-19.503056
239	0xbe8f3a12	-0.27973992
240	0xbde75e0a	-0.112972334
241	0xc1503b78	-13.014519
242	0xbe833f2f	-0.25634143
243	0x3d6778e4	0.056511775
244	0xbb48ef50	-0.003066022
245	0xbc8bf95d	-0.01708668
246	0xbf0a74db	-0.5408456
247	0xbd7a4378	-0.0610995
248	0x3daff2ec	0.085912555
249	0xbe8a7a92	-0.2704664
250	0x3ca0fb30	0.019651026
251	0xbe354bac	-0.17704648
252	0xbe67ce7b	-0.2263736
253	0x3dbcce5c	0.092190474
254	0x3debac20	0.115074396
255	0x3e7c503e	0.24639985

sequential_2/dense_7/MatMul f4 [64, 64]
0	0xbe4b6054	-0.19860965
1	0x3cf0597d	0.029339546
2	0xbdf2b701	-0.118513115
3	0xbe8bbe84	-0.2729379
4	0xbc7a3e84	-0.015273694
5	0xbe04a120	-0.1295209
6	0xbc0611f6	-0.008182993
7	0x3dcbd270	0.09952247
8	0x3e53236b	0.2061898
9	0xbd799751	-0.060935322
10	0xbe1dbe0c	-0.15404528
11	0xbe624d96	-0.22099909
12	0x3dedef02	0.11617853
13	0xbda71dc2	-0.08159973
14	0x3e5e6887	0.21719562
15	0xbe08811a	-0.13330498
16	0x3e48f47f	0.19624518
17	0x3e13e50a	0.1444284
18	0x3dc0f36c	0.09421429
19	0x3e2d2621	0.16909076
20	0xbe393c25	-0.1808935
21	0xbd448b60	-0.04798448
22	0x3d8f1c26	0.06987791
23	0xbe50bf73	-0.20385532
24	0x3e88e967	0.26740572
25	0x3d4bd7f6	0.049766503
26	0xbe48b727	-0.19601117
27	0xbd8e9254	-0.069615036
28	0xbd380adc	-0.04493223
29	0xbd3b2618	-0.045690626
30	0xbe1641b8	-0.14673507
31	0xbe2e66b9	-0.17031373
32	0xbe01afb8	-0.12664688
33	0x3d2b47ed	0.04181664
34	0xbdb24854	-0.08705202
35	0x3dce2e9a	0.10067482
36	0xbe38afa6	-0.18035755
37	0xbe424e5e	-0.18975207
38	0x3b1ccb1f	0.002392478
39	0x3e4cc85d	0.19998308
40	0x3dfa6968	0.12227136
41	0xbd260283	-0.04052974
42	0x3d6a09c5	0.057138223
43	0x3e5e18fe	0.21689221
44	0xbe3f909b	-0.18707506
45	0x3cf205e7	0.02954383
46	0x3d9cc1cb	0.076541506
47	0xbdda11e6	-0.10647945
48	0x3c053240	0.008129656
49	0xbdeee3e6	-0.11664562
50	0x3e415c8b	0.18882959
51	0xbcbdc440	-0.023164868
52	0xbe5ab3f4	-0.21357709
53	0x3e3c49ce	0.18387529
54	0xbe321c1b	-0.17393534
55	0xbe2ba81d	-0.16763349
56	0xbdd6c3c2	-0.104865566
57	0xbd7cc636	-0.061712466
58	0xbe270989	-0.16312231
59	0xbd3d21e5	-0.046174902
60	0xbd984e9d	-0.07436869
61	0x3e051acb	0.12998502
62	0xbe2ae392	-0.16688374
63	0xbe0dabb2	-0.13835028
64	0xbde89388	-0.11356264
65	0xbe52a1f0	-0.20569587
66	0x3d50b928	0.05095783
67	0xbe0020d1	-0.12512518
68	0xbe6c82c0	-0.23096752
69	0xbd57607b	-0.052582245
70	0xbd82d24f	-0.063877694
71	0xbdf7f4cf	-0.121072404
72	0xbe55c236	-0.20874867
73	0xbd1ce09d	-0.038300145
74	0x3e0e3fcd	0.13891526
75	0xbe101da9	-0.14073814
76	0x3da1a3fe	0.07892607
77	0x3e0f1c8b	0.13975732
78	0xbeea9b9c	-0.45821846
79	0x3e2ad617	0.16683231
80	0x3d871e16	0.06597535
81	0x3e04d660	0.12972403
82	0xbe25dfe8	-0.16198695
83	0xbe2a6aa3	-0.16642241
84	0xbe0fec86	-0.1405507
85	0x3d5351dc	0.05159174
86	0x3e266f81	0.16253473
87	0xbce00c00	-0.027349472
88	0xbf28ef21	-0.6598988
89	0x3da043bf	0.078254215
90	0x3e2c782f	0.16842721
91	0xbe2ecdb1	-0.17070653
92	0x3d61493c	0.055001482
93	0x3e14adbd	0.14519401
94	0xbe242a96	-0.1603187
95	0xbe14e45c	-0.14540237
96	0x3e4e68eb	0.2015721
97	0xbef399ca	-0.4757827
98	0xbdc9ec06	-0.09859471
99	0xbe234af1	-0.15946557
100	0xbde6cbe8	-0.11269361
101	0x3d846267	0.06464081
102	0xbe8597fe	-0.26092523
103	0x3d68eb14	0.056864813
104	0x3da64733	0.08119049
105	0x3e3a0036	0.18164143
106	0x3afd51d5	0.0019326756
107	0x3e3e01b1	0.18555333
108	0xbd752034	-0.059845164
109	0xbe890f33	-0.2676941
110	0xbe1872a7	-0.14887486
111	0x3dcfe2fb	0.10150715
112	0x3d9e6c3e	0.07735489
113	0x3e35e0b5	0.177615
114	0xbe3faefa	-0.18719092
115	0x3c9a9940	0.018871903
116	0xbccd6641	-0.025073173
117	0xbe4ef85b	-0.20211928
118	0xbe292c84	-0.16520888
119	0x3e00364e	0.12520716
120	0xbe3e8ac6	-0.18607625
121	0x3b2700b9	0.0025482608
122	0xbe27c85f	-0.1638503
123	0x3dfe07c5	0.12403826
124	0xbd29637a	-0.041354634
125	0xbe349778	-0.17635906
126	0xbd90e9b3	-0.070758246
127	0x3df4fb6a	0.11962016
128	0xbd0d27e7	-0.034461882
129	0xbe48d9af	-0.1961429
130	0xbe295578	-0.1653651
131	0x3e746173	0.23865299
132	0x3cd4123e	0.025887605
133	0xbe1f5f31	-0.15563656
134	0xbe19fb4c	-0.15037268
135	0x3e0d26d4	0.13784343
136	0x3c035390	0.008015528
137	0x3c8e0466	0.017336082
138	0xbe44829e	-0.19190452
139	0x3e237ab9	0.15964784
140	0xbd7bc844	-0.061470285
141	0x3e0a51df	0.13507794
142	0xbe8fa695	-0.2805678
143	0x3dff3c56	0.1246268
144	0xbe08e175	-0.13367255
145	0x3dc03cff	0.09386634
146	0x3d10d269	0.035356913
147	0xbd935c78	-0.071953714
148	0x3e3bcff4	0.18341047
149	0xbe07cefc	-0.13262552
150	0x3e217b9d	0.15769811
151	0x3db07d8a	0.08617695
152	0xbe1e3569	-0.15450062
153	0x3ddcd660	0.10783076
154	0x3e0e86cd	0.1391861
155	0x3e6301c8	0.22168648
156	0xbe5c2084	-0.21496779
157	0x3e4d1319	0.20026816
158	0xbe3f6f8b	-0.18694894
159	0x3db3a312	0.087713376
160	0x3d3f4be4	0.046703234
161	0xbe81b18e	-0.25330776
162	0xbe4a5b46	-0.1976138
163	0x3e256e63	0.1615539
164	0x3d9b8da8	0.07595378
165	0xbe4bffdc	-0.19921821
166	0xbe85d2e5	-0.26137462
167	0x3e2ff815	0.1718448
168	0xbe6f080a	-0.2334291
169	0x3e420876	0.1894854
170	0xbc88ffe7	-0.016723586
171	0xbe54a364	-0.20765454
172	0xbde09e76	-0.10967724
173	0xbe9d1aff	-0.3068466
174	0xbdf0b404	-0.11753085
175	0x3e315576	0.17317757
176	0x3e004265	0.12525328
177	0x3dc1caf6	0.0946254
178	0xbd9e2ccf	-0.0772339
179	0x3b87e300	0.0041469336
180	0xbd92c51c	-0.07166502
181	0x3e009cde	0.1255984
182	0x3e22b8f7	0.15890871
183	0xbcaeb4d3	-0.021326458
184	0xbe2817f3	-0.16415386
185	0xbe539f63	-0.2066627
186	0xbdce33ed	-0.10068498
187	0xbbc7dfc2	-0.006099672
188	0x3d074595	0.033025343
189	0x3d6b4f07	0.057448413
190	0x3c8e2621	0.017352166
191	0x3d95f2ee	0.07321726
192	0x3e45394a	0.19260135
193	0x3d11871a	0.035529234
194	0x3e69d12d	0.228337
195	0x3cef2e3b	0.02919685
196	0x3bb449b2	0.005501949
197	0x3dd47edd	0.1037576
198	0xbd16d54d	-0.036824513
199	0xbde7d694	-0.113202244
200	0xbe5755c0	-0.21028805
201	0x3d84541b	0.06461354
202	0xbd8a776c	-0.06761059
203	0xbe00b8a6	-0.12570438
204	0xbd31420c	-0.043275878
205	0x3e1f6551	0.15565993
206	0x3e70379a	0.2345871
207	0xbdb7d96c	-0.08977017
208	0x3e266cdd	0.16252466
209	0x3ddbd38c	0.10733709
210	0x3db1adb5	0.0867571
211	0xbe05b52a	-0.1305739
212	0xbd8a288e	-0.067460164
213	0xbe462b78	-0.1935252
214	0xbdf18e61	-0.11794735
215	0xbdba8008	-0.09106451
216	0x3dde1efa	0.10845752
217	0xbe2bce38	-0.16777885
218	0xbd80bb46	-0.062857196
219	0x3e2ea341	0.17054464
220	0x3e24e3e1	0.16102554
221	0x3d9daa8e	0.07698546
222	0xbe5fa29d	-0.21839376
223	0x3e3df0aa	0.18548837
224	0xbe52589f	-0.20541619
225	0x3e7a99cf	0.24472736
226	0x3d92ed01	0.07174111
227	0xbda81216	-0.082065746
228	0x3eaf65ce	0.34257358
229	0x3e429e26	0.19005641
230	0x3d699341	0.057025198
231	0x3e540df9	0.20708455
232	0xbe1feecf	-0.15618442
233	0xbe3c5d76	-0.18395028
234	0x3d37c906	0.044869445
235	0xbddb23fc	-0.10700223
236	0x3d9e674d	0.07734547
237	0x3ea58dc4	0.3233472
238	0xbdbce34d	-0.09223042
239	0xbc61c49a	-0.013779784
240	0xbe3badfa	-0.18328086
241	0x3d40f494	0.047108248
242	0xbe3663fa	-0.17811576
243	0x3deae1ee	0.11468874
244	0xbd0ec65a	-0.03485713
245	0x3da7504d	0.08169613
246	0x3d6e1101	0.058121685
247	0xbdb92e8b	-0.090420805
248	0x3e335e5b	0.17516463
249	0x3e0c232e	0.13685295
250	0x3ddbb751	0.10728324
251	0x3d1d3b38	0.038386554
252	0xbbbad7e1	-0.0057020043
253	0x3e3be40e	0.18348715
254	0xbdadec31	-0.084923156
255	0x3e2bcdab	0.16777675

sequential_2/dense_8/MatMul f4 [2, 64]
0	0x3d46a417	0.048496332
1	0xbd69f56d	-0.057118822
2	0x3e199260	0.14997244
3	0xbd5e3c42	-0.054256685
4	0x3e97237a	0.29519254
5	0x3ec5f3c1	0.38662532
6	0x3e6f39a8	0.23361838
7	0x3e100912	0.1406596
8	0x3e9ae6b6	0.30254143
9	0xbe824f6e	-0.25451225
10	0x3e0c2c9a	0.13688889
11	0x3edc0770	0.42974424
12	0x3df84006	0.121215865
13	0x3db7cec3	0.089749835
14	0x3e155291	0.14582278
15	0x3e15524a	0.14582172
16	0x3df15085	0.11782936
17	0xbd498c8d	-0.049206305
18	0xbe7913e4	-0.24323994
19	0x3c8eac44	0.017416127
20	0xbe52c795	-0.20583947
21	0x3eaa2ac1	0.33235744
22	0xbb0168ca	-0.0019746297
23	0xbe404dff	-0.18779753
24	0x3ee0fc7b	0.43942627
25	0xbefd7233	-0.4950119
26	0x3ee4c0ea	0.44678432
27	0xbe25e0cd	-0.16199036
28	0x3f37e5f0	0.7183523
29	0xbefcd771	-0.4938312
30	0xbe8adf69	-0.27123573
31	0xbe71dd07	-0.23619471
32	0xbdb08856	-0.08619754
33	0xbeb6348e	-0.3558697
34	0x3ef611b1	0.48060372
35	0xbd970ca5	-0.07375459
36	0x3e459d7e	0.1929836
37	0x3d5c1623	0.05373205
38	0x3e4f17e7	0.20223962
39	0x3ecc1219	0.39857557
40	0xbec81608	-0.39079309
41	0xbec06398	-0.37575984
42	0x3db420c5	0.08795313
43	0x3ea4712e	0.321176
44	0x3cd06cbd	0.025442475
45	0x3e6ee76e	0.23330471
46	0x3e5452eb	0.20734756
47	0xbf0474c3	-0.51740664
48	0xbe08bd3b	-0.13353436
49	0x3e1c6d2c	0.15276021
50	0x3db10754	0.08643976
51	0x3f6757b7	0.9036822
52	0x3e229f05	0.15880974
53	0x3ef19ec3	0.47191438
54	0xbdc960bc	-0.09832904
55	0xbf2aecfd	-0.66767865
56	0xbda32a2b	-0.07967027
57	0x3f1a6962	0.6031705
58	0xbe407eae	-0.18798324
59	0x3e3f514a	0.18683353
60	0x3e89b672	0.26897007
61	0xbd821dfa	-0.06353374
62	0xbe755ee3	-0.23961978
63	0x3eb64dfa	0.35606366
64	0xbe940c92	-0.2891584
65	0xbe6ca4d3	-0.2310975
66	0x3e4a992e	0.19784996
67	0xbda50fdb	-0.08059665
68	0xbe99319f	-0.2992067
69	0xbee1d72e	-0.44109482
70	0xbeb2e918	-0.3494346
71	0x3de407e4	0.111343175
72	0xbea57f13	-0.32323512
73	0xbdda981d	-0.106735446
74	0xbe8cf438	-0.27530074
75	0xbeaad69e	-0.33366865
76	0xbe125f57	-0.14294182
77	0x3dc22fff	0.09481811
78	0xbe7ba609	-0.24575056
79	0x3d5588af	0.052132305
80	0x3e500ba6	0.20316944
81	0xbdb6af03	-0.089200996
82	0xbea00f16	-0.3126151
83	0xbdb2cf14	-0.08730903
84	0xbceeb2e2	-0.029138032
85	0xbdd5f7b5	-0.10447637
86	0xbd6d08b1	-0.057869617
87	0x3ed903f8	0.4238584
88	0xbebf4d78	-0.3736379
89	0x3dfe4357	0.12415188
90	0xbeff1937	-0.49823925
91	0xbdd24127	-0.10266333
92	0xbf2dc278	-0.6787486
93	0x3e0d53f3	0.13801555
94	0xbe5ea0b4	-0.21740991
95	0x3f049294	0.5178616
96	0xbcbac7b3	-0.022800302
97	0x3ed27ba4	0.41109955
98	0xbdc6367a	-0.09678359
99	0x3d9cb6b1	0.07652033
100	0x3e313b28	0.17307723
101	0xbd8e8e5a	-0.06960745
102	0xbf00a279	-0.50247914
103	0x3ce83417	0.02834515
104	0x3e076129	0.13220657
105	0x3cffb476	0.03121398
106	0x3eac56a8	0.33659863
107	0xbea7ebac	-0.3279699
108	0x3e9dab65	0.30794826
109	0xbde99094	-0.11404529
110	0x3c9b14e4	0.01893086
111	0x3e633580	0.22188377
112	0xbecd1408	-0.40054345
113	0xbf0904c3	-0.5352289
114	0x3e9588fd	0.29206076
115	0xbf72d6f1	-0.94859225
116	0x3d5618ac	0.052269623
117	0xbeb06738	-0.3445375
118	0xbe834f35	-0.25646368
119	0x3f2905b0	0.66024303
120	0xbd76e3c7	-0.06027582
121	0xbec11efc	-0.37718952
122	0xbe3da1c0	-0.18518734
123	0xbe4822d1	-0.19544531
124	0x3e05bc34	0.13060075
125	0x3ece103c	0.4024676
126	0x3e035fd0	0.12829518
127	0xbef2071d	-0.47271052

sequential_2/dense_8/MatMul;sequential_2/dense_8/BiasAdd f4 [2]
0	0x3d7419ca	0.059594907
1	0xbd65f104	-0.056138054
